…
#  'termination_type': 'continuing',
#  'steps_to_termination': None,
#  'fire_threshold': None,
#  'reward_type': 'cells',
#  'reward_tree': 0.01,
#  'reward_fire': -0.01,
#  'reward_empty': 0.0,
#  'reward_hit': 10.0,
#  'tree': 0,
#  'empty': 1,
#  'fire': 2,
#  'rock': 3,
#  'lake': 4,
#  'observation_mode': 'channels3',
#  'sub_tree': None,
#  'sub_empty': None,
#  'sub_fire': 'empty',
#  'sub_rock': None,
#  'sub_lake': None,
#  'ip_tree': None,
#  'ip_empty': None,
#  'ip_fire': None,
#  'ip_rock': None,
#  'ip_lake': None}
#
# ------------- Network Arch ------------
# DQN(
#   (conv): Sequential(
#     (0): Conv2d(3, 32, kernel_size=(6, 6), stride=(1, 1), padding=(3, 3))
#     (1): ReLU()
#     (2): Conv2d(32, 64, kernel_size=(3, 3), stride=(1, 1))
#     (3): ReLU()
#     (4): Conv2d(64, 64, kernel_size=(2, 2), stride=(1, 1))
#     (5): ReLU()
#   )
#   (fc): Sequential(
#     (0): Linear(in_features=579, out_features=512, bias=True)
#     (1): ReLU()
#     (2): Linear(in_features=512, out_features=9, bias=True)
#   )
# )
epoch,bound,year,month,day,hour,minute,second
0,START,2020,05,27,03,26,16
199999,END,2020,05,27,04,39,34
# FOREST FIRE DQN
# 2020/May/27 05:05:09
#
# ------------- Running Params -------------
# EPOCHS = 6000000
# JOB_ITERS = 1000000
# DEVICE = cuda
#
# ------------- Logging Params ------------
# LOG_WINDOW = 10000
# STATE_FILE = dqn_state.txt
# TRAINING_FILE = dqn_training.csv
…
#  'termination_type': 'continuing',
#  'steps_to_termination': None,
#  'fire_threshold': None,
#  'reward_type': 'cells',
#  'reward_tree': 0.01,
#  'reward_fire': -0.01,
#  'reward_empty': 0.0,
#  'reward_hit': 10.0,
#  'tree': 0,
#  'empty': 1,
#  'fire': 2,
#  'rock': 3,
#  'lake': 4,
#  'observation_mode': 'channels3',
#  'sub_tree': None,
#  'sub_empty': None,
#  'sub_fire': 'empty',
#  'sub_rock': None,
#  'sub_lake': None,
#  'ip_tree': None,
#  'ip_empty': None,
#  'ip_fire': None,
#  'ip_rock': None,
#  'ip_lake': None}
#
# ------------- Network Arch ------------
# DQN(
#   (conv): Sequential(
#     (0): Conv2d(3, 32, kernel_size=(7, 7), stride=(1, 1), padding=(3, 3))
#     (1): ReLU()
#     (2): Conv2d(32, 64, kernel_size=(5, 5), stride=(1, 1), padding=(2, 2))
#     (3): ReLU()
#     (4): Conv2d(64, 64, kernel_size=(3, 3), stride=(1, 1), padding=(1, 1))
#     (5): ReLU()
#   )
#   (fc): Sequential(
#     (0): Linear(in_features=1603, out_features=64, bias=True)
#     (1): ReLU()
#     (2): Linear(in_features=64, out_features=32, bias=True)
#     (3): ReLU()
#     (4): Linear(in_features=32, out_features=9, bias=True)
#   )
# )
epoch,bound,year,month,day,hour,minute,second
0,START,2020,05,27,05,05,09
999999,END,2020,05,27,12,53,12
1000000,START,2020,05,27,13,07,17
# FOREST FIRE DQN
# 2020/May/26 07:26:02
#
# ------------- Running Params -------------
# EPOCHS = 2000000
# JOB_ITERS = 1000000
# DEVICE = cuda
#
# ------------- Logging Params ------------
# LOG_WINDOW = 1000
…
#  'termination_type': 'continuing',
#  'steps_to_termination': None,
#  'fire_threshold': None,
#  'reward_type': 'cells',
#  'reward_tree': 1,
#  'reward_fire': -1,
#  'reward_empty': 0.0,
#  'reward_hit': 10.0,
#  'tree': 0,
#  'empty': 1,
#  'fire': 2,
#  'rock': 3,
#  'lake': 4,
#  'observation_mode': 'channels3',
#  'sub_tree': None,
#  'sub_empty': None,
#  'sub_fire': 'empty',
#  'sub_rock': None,
#  'sub_lake': None,
#  'ip_tree': None,
#  'ip_empty': None,
#  'ip_fire': None,
#  'ip_rock': None,
#  'ip_lake': None}
#
# ------------- Network Arch ------------
# DQN(
#   (conv): Sequential(
#     (0): Conv2d(3, 32, kernel_size=(3, 3), stride=(1, 1), padding=(1, 1))
#     (1): ReLU()
#     (2): Conv2d(32, 64, kernel_size=(3, 3), stride=(1, 1), padding=(1, 1))
#     (3): ReLU()
#     (4): Conv2d(64, 64, kernel_size=(3, 3), stride=(1, 1), padding=(1, 1))
#     (5): ReLU()
#   )
#   (fc): Sequential(
#     (0): Linear(in_features=579, out_features=512, bias=True)
#     (1): ReLU()
#     (2): Linear(in_features=512, out_features=9, bias=True)
#   )
# )
epoch,bound,year,month,day,hour,minute,second
0,START,2020,05,28,05,37,15
999999,END,2020,05,28,13,26,33
1000000,START,2020,05,28,19,18,18
1599999,END,2020,05,28,22,12,37
1600000,START,2020,05,28,23,09,16
2399999,END,2020,05,29,03,12,35
2400000,START,2020,05,29,03,18,56
3399999,END,2020,05,29,08,11,22
# FOREST FIRE DQN
# 2020/May/30 05:20:52
#
# ------------- Running Params -------------
…
#  'termination_type': 'continuing',
#  'steps_to_termination': None,
#  'fire_threshold': None,
#  'reward_type': 'cells',
#  'reward_tree': 1,
#  'reward_fire': -1,
#  'reward_empty': 0.0,
#  'reward_hit': 10.0,
#  'tree': 0,
#  'empty': 1,
#  'fire': 2,
#  'rock': 3,
#  'lake': 4,
#  'observation_mode': 'channels3',
#  'sub_tree': None,
#  'sub_empty': None,
#  'sub_fire': 'empty',
#  'sub_rock': None,
#  'sub_lake': None,
#  'ip_tree': None,
#  'ip_empty': None,
#  'ip_fire': None,
#  'ip_rock': None,
#  'ip_lake': None}
#
# ------------- Network Arch ------------
# DQN(
#   (conv): Sequential(
#     (0): Conv2d(3, 32, kernel_size=(3, 3), stride=(1, 1), padding=(1, 1))
#     (1): ReLU()
#     (2): Conv2d(32, 64, kernel_size=(3, 3), stride=(1, 1), padding=(1, 1))
#     (3): ReLU()
#     (4): Conv2d(64, 64, kernel_size=(3, 3), stride=(1, 1), padding=(1, 1))
#     (5): ReLU()
#   )
#   (fc): Sequential(
#     (0): Linear(in_features=1603, out_features=512, bias=True)
#     (1): ReLU()
#     (2): Linear(in_features=512, out_features=9, bias=True)
#   )
# )
epoch,bound,year,month,day,hour,minute,second
0,START,2020,05,30,05,20,53
1999999,END,2020,05,30,18,40,40
2000000,START,2020,05,30,21,07,18
2499999,END,2020,05,31,00,43,16
2500000,START,2020,05,31,00,52,54
2999999,END,2020,05,31,04,44,00
3000000,START,2020,05,31,04,57,05
# FOREST FIRE DQN
# 2020/May/30 23:05:09
#
# ------------- Running Params -------------
…
#  'termination_type': 'continuing',
#  'steps_to_termination': None,
#  'fire_threshold': None,
#  'reward_type': 'cells',
#  'reward_tree': 1,
#  'reward_fire': -1,
#  'reward_empty': 0.0,
#  'reward_hit': 10.0,
#  'tree': 0,
#  'empty': 1,
#  'fire': 2,
#  'rock': 3,
#  'lake': 4,
#  'observation_mode': 'one_hot3',
#  'sub_tree': None,
#  'sub_empty': None,
#  'sub_fire': 'empty',
#  'sub_rock': None,
#  'sub_lake': None,
#  'ip_tree': None,
#  'ip_empty': None,
#  'ip_fire': None,
#  'ip_rock': None,
#  'ip_lake': None}
#
# ------------- Network Arch ------------
# DQN(
#   (fc): Sequential(
#     (0): Linear(in_features=78, out_features=256, bias=True)
#     (1): ReLU()
#     (2): Linear(in_features=256, out_features=512, bias=True)
#     (3): ReLU()
#     (4): Linear(in_features=512, out_features=256, bias=True)
#     (5): ReLU()
#     (6): Linear(in_features=256, out_features=64, bias=True)
#     (7): ReLU()
#     (8): Linear(in_features=64, out_features=9, bias=True)
#   )
# )
epoch,bound,year,month,day,hour,minute,second
0,START,2020,06,02,00,15,37
199999,END,2020,06,02,03,14,03
200000,START,2020,06,02,03,41,51
549999,END,2020,06,02,09,06,04
550000,START,2020,06,02,13,15,27
897999,END,2020,06,02,19,15,27
898000,START,2020,06,02,18,52,33
1197999,END,2020,06,02,23,42,40
1198000,START,2020,06,02,23,49,25
1198001,START,2020,06,03,00,05,42
…
#  'termination_type': 'continuing',
#  'steps_to_termination': None,
#  'fire_threshold': None,
#  'reward_type': 'cells',
#  'reward_tree': 1,
#  'reward_fire': -1,
#  'reward_empty': 0.0,
#  'reward_hit': 10.0,
#  'tree': 0,
#  'empty': 1,
#  'fire': 2,
#  'rock': 3,
#  'lake': 4,
#  'observation_mode': 'one_hot3',
#  'sub_tree': None,
#  'sub_empty': None,
#  'sub_fire': 'empty',
#  'sub_rock': None,
#  'sub_lake': None,
#  'ip_tree': None,
#  'ip_empty': None,
#  'ip_fire': None,
#  'ip_rock': None,
#  'ip_lake': None}
#
# ------------- Network Arch ------------
# DQN(
#   (fc): Sequential(
#     (0): Linear(in_features=30, out_features=128, bias=True)
#     (1): ReLU()
#     (2): Linear(in_features=128, out_features=256, bias=True)
#     (3): ReLU()
#     (4): Linear(in_features=256, out_features=128, bias=True)
#     (5): ReLU()
#     (6): Linear(in_features=128, out_features=32, bias=True)
#     (7): ReLU()
#     (8): Linear(in_features=32, out_features=9, bias=True)
#   )
# )
epoch,bound,year,month,day,hour,minute,second
0,START,2020,06,07,03,06,29
1199999,END,2020,06,07,06,31,04
# FOREST FIRE DQN
# 2020/June/07 03:28:42
#
# ------------- Running Params -------------
# EPOCHS = 1200000
# JOB_ITERS = 600000
# DEVICE = cuda:0
#
# ------------- Logging Params ------------
# LOG_WINDOW = 10000
# STATE_FILE = dqn_state.txt
…
#  'termination_type': 'continuing',
#  'steps_to_termination': None,
#  'fire_threshold': None,
#  'reward_type': 'cells',
#  'reward_tree': 1,
#  'reward_fire': -1,
#  'reward_empty': 0.0,
#  'reward_hit': 10.0,
#  'tree': 0,
#  'empty': 1,
#  'fire': 2,
#  'rock': 3,
#  'lake': 4,
#  'observation_mode': 'one_hot3',
#  'sub_tree': None,
#  'sub_empty': None,
#  'sub_fire': 'empty',
#  'sub_rock': None,
#  'sub_lake': None,
#  'ip_tree': None,
#  'ip_empty': None,
#  'ip_fire': None,
#  'ip_rock': None,
#  'ip_lake': None}
#
# ------------- Network Arch ------------
# DQN(
#   (fc): Sequential(
#     (0): Linear(in_features=51, out_features=256, bias=True)
#     (1): ReLU()
#     (2): Linear(in_features=256, out_features=512, bias=True)
#     (3): ReLU()
#     (4): Linear(in_features=512, out_features=256, bias=True)
#     (5): ReLU()
#     (6): Linear(in_features=256, out_features=64, bias=True)
#     (7): ReLU()
#     (8): Linear(in_features=64, out_features=9, bias=True)
#   )
# )
epoch,bound,year,month,day,hour,minute,second
0,START,2020,06,07,18,28,05
119,END,2020,06,07,18,28,07
120,START,2020,06,07,19,55,40
1200119,END,2020,06,07,23,45,36
1200120,START,2020,06,08,00,47,02
2400119,END,2020,06,08,04,33,37
# FOREST FIRE DQN
# 2020/June/08 13:41:30
#
# ------------- Running Params -------------
# EPOCHS = 1200000
# JOB_ITERS = 1200000
…
#  'termination_type': 'continuing',
#  'steps_to_termination': None,
#  'fire_threshold': None,
#  'reward_type': 'cells',
#  'reward_tree': 1,
#  'reward_fire': -1,
#  'reward_empty': 0.0,
#  'reward_hit': 10.0,
#  'tree': 0,
#  'empty': 1,
#  'fire': 2,
#  'rock': 3,
#  'lake': 4,
#  'observation_mode': 'one_hot3',
#  'sub_tree': None,
#  'sub_empty': None,
#  'sub_fire': 'empty',
#  'sub_rock': None,
#  'sub_lake': None,
#  'ip_tree': None,
#  'ip_empty': None,
#  'ip_fire': None,
#  'ip_rock': None,
#  'ip_lake': None}
#
# ------------- Network Arch ------------
# DQN(
#   (fc): Sequential(
#     (0): Linear(in_features=30, out_features=256, bias=True)
#     (1): ReLU()
#     (2): Linear(in_features=256, out_features=512, bias=True)
#     (3): ReLU()
#     (4): Linear(in_features=512, out_features=256, bias=True)
#     (5): ReLU()
#     (6): Linear(in_features=256, out_features=64, bias=True)
#     (7): ReLU()
#     (8): Linear(in_features=64, out_features=9, bias=True)
#   )
# )
epoch,bound,year,month,day,hour,minute,second
0,START,2020,06,08,13,41,30
1199999,END,2020,06,08,16,59,23
# FOREST FIRE DQN
# 2020/June/08 18:52:11
#
# ------------- Running Params -------------
# EPOCHS = 1200000
# JOB_ITERS = 1200000
# DEVICE = cuda:0
#
# ------------- Logging Params ------------
# LOG_WINDOW = 10000
# STATE_FILE = dqn_state.txt
…
